submission/part 3 code/python/model_weights_fixed.npy (npy, 720 bytes, 1 tensors)

array i1 [10, 64]
00000000: 00fe f6d6 c0c4 ef00 00f3 ddf7 fff5 f0e3
00000010: feec 11f8 1c19 eac8 f3f9 e60e be0e 13f7
00000020: f427 2fed b311 130f f1f1 0c03 dae2 eaf6
00000030: f90b ff37 0af2 ccfd 00f7 cda2 bcde ef00
00000040: 00ff f8f3 f6e4 f800 00fa dde8 f2f6 1dfc
00000050: 00fa e101 eef2 eff1 0006 e300 48dc ebfd
00000060: 00fc bcfe 0c81 de01 f9d2 f807 f80a f802
00000070: ff16 15ec 0814 f100 00fb e0bd bef7 ff00
00000080: 0000 01f5 dbcf f5ff fff6 faff 0305 e4f4
00000090: fe05 0400 fefb 03f3 00dd e9ec f401 f5fe
000000a0: f9ff 0409 0000 f618 fd13 0304 0600 0920
000000b0: 0bf4 0806 fb0d 0b0d fdeb d2cd eaf7 f500
000000c0: 0000 fdf6 020a ff00 0306 0003 ff00 eeeb
000000d0: f501 00fe 0100 0ae0 0000 fe00 0100 f1f2
000000e0: 0600 fe01 ff00 04f9 0e00 00fa 0000 02e1
000000f0: 1d00 0002 fe02 f7f0 0203 01fe 01f7 fa00
0 -2 -10 -42 -64 -60 -17 0
0 -13 -35 -9 -1 -11 -16 -29
-2 -20 17 -8 28 25 -22 -56
-13 -7 -26 14 -66 14 19 -9
-12 39 47 -19 -77 17 19 15
-15 -15 12 3 -38 -30 -22 -10
-7 11 -1 55 10 -14 -52 -3
0 -9 -51 -94 -68 -34 -17 0
0 -1 -8 -13 -10 -28 -8 0
0 -6 -35 -24 -14 -10 29 -4
0 -6 -31 1 -18 -14 -17 -15
0 6 -29 0 72 -36 -21 -3
0 -4 -68 -2 12 -127 -34 1
-7 -46 -8 7 -8 10 -8 2
-1 22 21 -20 8 20 -15 0
0 -5 -32 -67 -66 -9 -1 0
0 0 1 -11 -37 -49 -11 -1
-1 -10 -6 -1 3 5 -28 -12
-2 5 4 0 -2 -5 3 -13
0 -35 -23 -20 -12 1 -11 -2
-7 -1 4 9 0 0 -10 24
-3 19 3 4 6 0 9 32
11 -12 8 6 -5 13 11 13
-3 -21 -46 -51 -22 -9 -11 0
0 0 -3 -10 2 10 -1 0
3 6 0 3 -1 0 -18 -21
-11 1 0 -2 1 0 10 -32
0 0 -2 0 1 0 -15 -14
6 0 -2 1 -1 0 4 -7
14 0 0 -6 0 0 2 -31
29 0 0 2 -2 2 -9 -16
2 3 1 -2 1 -9 -6 0
