zynq/python/model_weights_fixed.npy (npy, 2640 bytes, 1 tensors)

array i1 [10, 256]
0	0x00	0
1	0x80	-128
2	0x7f	127
3	0x7f	127
4	0x7f	127
5	0x7f	127
6	0x25	37
7	0x7f	127
8	0xf2	-14
9	0x7f	127
10	0x7f	127
11	0x7f	127
12	0x7f	127
13	0x7f	127
14	0x80	-128
15	0x00	0
16	0x7f	127
17	0x7f	127
18	0x53	83
19	0x80	-128
20	0x7f	127
21	0x80	-128
22	0x66	102
23	0x83	-125
24	0xad	-83
25	0x80	-128
26	0x80	-128
27	0x80	-128
28	0x80	-128
29	0x80	-128
30	0x7f	127
31	0x80	-128
32	0x7f	127
33	0x80	-128
34	0xd1	-47
35	0xbc	-68
36	0x06	6
37	0xa2	-94
38	0xc5	-59
39	0x2e	46
40	0x00	0
41	0x2d	45
42	0xd2	-46
43	0x3c	60
44	0x87	-121
45	0x80	-128
46	0x90	-112
47	0x80	-128
48	0x80	-128
49	0x7f	127
50	0xb6	-74
51	0x16	22
52	0xdc	-36
53	0xbf	-65
54	0xbb	-69
55	0x3e	62
56	0x1a	26
57	0x02	2
58	0x29	41
59	0xce	-50
60	0x3d	61
61	0x80	-128
62	0x95	-107
63	0x80	-128
64	0x7f	127
65	0x80	-128
66	0x02	2
67	0x14	20
68	0x01	1
69	0x23	35
70	0x03	3
71	0x2f	47
72	0x45	69
73	0x4d	77
74	0x51	81
75	0xf1	-15
76	0xef	-17
77	0xd1	-47
78	0x80	-128
79	0x7f	127
80	0x80	-128
81	0x3a	58
82	0xbe	-66
83	0x2a	42
84	0xfe	-2
85	0x0f	15
86	0xde	-34
87	0x1d	29
88	0x7f	127
89	0x59	89
90	0x27	39
91	0x7f	127
92	0xe9	-23
93	0x78	120
94	0x80	-128
95	0x7f	127
96	0x7f	127
97	0x80	-128
98	0xf8	-8
99	0xb6	-74
100	0x26	38
101	0x29	41
102	0x2c	44
103	0x0f	15
104	0x97	-105
105	0xfb	-5
106	0x29	41
107	0x7f	127
108	0x6b	107
109	0x7f	127
110	0x80	-128
111	0x80	-128
112	0x7f	127
113	0x7f	127
114	0x80	-128
115	0x5a	90
116	0xc5	-59
117	0x15	21
118	0xff	-1
119	0xae	-82
120	0x80	-128
121	0xaa	-86
122	0x80	-128
123	0x9f	-97
124	0x3c	60
125	0x7f	127
126	0x9b	-101
127	0x7f	127
128	0x9f	-97
129	0x80	-128
130	0xc7	-57
131	0x47	71
132	0x44	68
133	0x7f	127
134	0x2a	42
135	0x80	-128
136	0x0b	11
137	0x98	-104
138	0x80	-128
139	0x01	1
140	0x7f	127
141	0xb6	-74
142	0x80	-128
143	0x80	-128
144	0x7f	127
145	0x80	-128
146	0x4c	76
147	0x48	72
148	0x02	2
149	0x5f	95
150	0xcf	-49
151	0x80	-128
152	0x80	-128
153	0x80	-128
154	0xd4	-44
155	0x7f	127
156	0x80	-128
157	0x63	99
158	0xec	-20
159	0x7f	127
160	0x7f	127
161	0x80	-128
162	0xc3	-61
163	0x63	99
164	0x70	112
165	0x02	2
166	0x0a	10
167	0xb1	-79
168	0xa8	-88
169	0x06	6
170	0x18	24
171	0xa7	-89
172	0x20	32
173	0xc1	-63
174	0x1b	27
175	0x80	-128
176	0x7f	127
177	0x80	-128
178	0xe7	-25
179	0xac	-84
180	0x2d	45
181	0x3b	59
182	0x10	16
183	0x51	81
184	0x00	0
185	0xdf	-33
186	0xf0	-16
187	0x08	8
188	0x0b	11
189	0x99	-103
190	0x4c	76
191	0x80	-128
192	0x80	-128
193	0xfb	-5
194	0xd5	-43
195	0x55	85
196	0xbc	-68
197	0x35	53
198	0x42	66
199	0xe6	-26
200	0x45	69
201	0xde	-34
202	0xcd	-51
203	0xcd	-51
204	0x15	21
205	0xc6	-58
206	0x3d	61
207	0x7f	127
208	0x7f	127
209	0x7f	127
210	0x80	-128
211	0xfc	-4
212	0x35	53
213	0x07	7
214	0x27	39
215	0x63	99
216	0x1a	26
217	0x52	82
218	0xf6	-10
219	0xe1	-31
220	0x98	-104
221	0x54	84
222	0x8c	-116
223	0x80	-128
224	0x80	-128
225	0x7f	127
226	0x80	-128
227	0xbd	-67
228	0x80	-128
229	0x80	-128
230	0x80	-128
231	0x80	-128
232	0xa2	-94
233	0xaa	-86
234	0x1b	27
235	0xff	-1
236	0x47	71
237	0x80	-128
238	0x80	-128
239	0x7f	127
240	0x00	0
241	0x80	-128
242	0x34	52
243	0x80	-128
244	0x80	-128
245	0x80	-128
246	0x80	-128
247	0x80	-128
248	0x80	-128
249	0x80	-128
250	0x80	-128
251	0x16	22
252	0x80	-128
253	0x80	-128
254	0x80	-128
255	0x80	-128
