zynq/python/model_weights.npy (npy, 5200 bytes, 1 tensors)

array f8 [10, 64]
0	0x0000000000000000	0.0
1	0xc0588062c086c445	-98.00602734719094
2	0xc07cf68a19307c41	-463.40871542873
3	0xc09c09d86930f742	-1794.461338772861
4	0xc0a59cdb9d320736	-2766.428933680897
5	0xc0a40022b85ea8f4	-2560.067812879681
6	0xc0876331fd71315e	-748.3994091838065
7	0xc043b3bfb39b9b85	-39.40428776834509
8	0xc033e2862d2d0e85	-19.884859870433974
9	0xc0823eaa8e7d07b3	-583.8332795875525
10	0xc097bd57ecec2d1e	-1519.335864725355
11	0xc0786e89780144cc	-390.9085617112694
12	0xc0472d6398cf0878	-46.35460195645368
13	0xc07db708da76f04e	-475.4396614690821
14	0xc08632deb3b43171	-710.3587411954487
15	0xc093801bead9bdc0	-1248.027263071257
16	0xc05de62d63372ade	-119.59652023684927
17	0xc08b7b19bdbce350	-879.3875689274664
18	0x408706921a05bf39	736.8213386963827
19	0xc076b25e8934cb3d	-363.14808006880395
20	0x4093138976dce352	1220.8842424882646
21	0x4090e2923ef09436	1080.6428182211362
22	0xc08dc6a516eb5787	-952.8306101213537
23	0xc0a2e9c105e9a9c5	-2420.8769982356775
24	0xc081d9131a551973	-571.1343275688545
25	0xc073b0913f84c7f5	-315.035460966755
26	0xc091a10f0a5bd174	-1128.26468795267
27	0x4083906aa45f1eea	626.0520713263807
28	0xc0a620ff8f2da0f7	-2832.4991392382613
29	0x4083be10a1b9322d	631.7581209629476
30	0x408992368faf5fc8	818.2766412449937
31	0xc07a1609a5249ef0	-417.3773547583105
32	0xc0811c01e601e86f	-547.5009269856508
33	0x409a1da6dc488271	1671.4129496888747
34	0x409f6e68b12d0c83	2011.6022383726965
35	0xc08a71ab4721ca81	-846.2086317672657
36	0xc0a9b0496639bf0b	-3288.143358044215
37	0x4086acb28bb0c582	725.5871805010104
38	0x4089fb23122e2d1c	831.392124520065
39	0x4084d2c130deabc1	666.344331493012
40	0xc0840a4fe3922137	-641.2890082756411
41	0xc085157681745958	-674.6828641023412
42	0x4080a84834c5a4b8	533.0352569046872
43	0x4065396bc55f2aa3	169.79440563761918
44	0xc099c160cdd755c5	-1648.3445352216816
45	0xc09430bc820f8833	-1292.1840898920898
46	0xc08d62c181dbb2d5	-940.3444859661055
47	0xc07b06bd7b9a3915	-432.4212604545913
48	0xc074a1d8e36e4c88	-330.11545126996543
49	0x407dd3593bdf3683	477.20928561394265
50	0xc050d086c10c1830	-67.25822473698713
51	0x40a27c4437fe29df	2366.1332396913635
52	0x407abac6087e79f8	427.673347944306
53	0xc082a8b90ef119a7	-597.0903605304674
54	0xc0a1a5810c3e1166	-2258.752046527504
55	0xc064a8c9816f4f84	-165.27459785213807
56	0xc026e32b01a4aa04	-11.443687487936593
57	0xc078dc855550c1d8	-397.7825520662859
58	0xc0a112b83ca5f308	-2185.3598377093476
59	0xc0af6071b3bb36a0	-4016.2220743660146
60	0xc0a6efdfdf19e691	-2935.93724900188
61	0xc0972c91ec35668e	-1483.1425026267857
62	0xc0873d687a853cac	-743.6760149392262
63	0x0000000000000000	0.0
64	0x0000000000000000	0.0
65	0xc045cb4caf09c1f6	-43.588277702106936
66	0xc075a9aad6c2cbba	-346.60420871822464
67	0xc081d2b069528398	-570.3361383863839
68	0xc07bedc868b9f174	-446.8614279998212
69	0xc092b3a836f97fd9	-1196.9142722114832
70	0xc07638ad577e2f53	-355.54231976786576
71	0xc03d3b5f960c1d1c	-29.231927278478096
72	0x0000000000000000	0.0
73	0xc0714c06a2bd6c29	-276.75162004464306
74	0xc0977b1d259937ce	-1502.7784637394248
75	0xc090508b5c332b71	-1044.1360939021363
76	0xc0831ce444acd519	-611.6114591124089
77	0xc07b668ceedc11e9	-438.4094074818118
78	0x40935d542428bfd7	1239.3321691863146
79	0xc06882179e09182e	-196.06538297439823
80	0x0000000000000000	0.0
81	0xc0710eaf351106b5	-272.9177752175413
82	0xc0950ac0a7451251	-1346.6881380836896
83	0x404f4dda16250374	62.60821797187137
84	0xc088576985206c31	-778.9265234501855
85	0xc083596bca023a84	-619.177631394778
86	0xc0874b08f3f8e462	-745.3793715901086
87	0xc08425d84b7dba5c	-644.7306127378938
88	0x40136300960fe393	4.846681923599038
89	0x407008ec39e47a0d	256.5576723980783
90	0xc093c7dc6b589371	-1265.9652532424918
91	0xc01f7e63ac0752e1	-7.87342709345532
92	0x40a823203a94c095	3089.562946938046
93	0xc0980284ef370c83	-1536.6298187829386
94	0xc08c25f7449fd7d3	-900.7457363593807
95	0xc06103f3f6fc9263	-136.1235308583301
96	0xc02e79f1b7c7b5d4	-15.238172286156363
97	0xc06679373cbf5c2c	-179.78799283385285
98	0xc0a6cd403c99b1a5	-2918.6254623441077
99	0xc055a524e4e676d6	-86.58037683969755
100	0x40814904a97c9e1c	553.1272763953925
101	0xc0b539ed83ce0273	-5433.927792430494
102	0xc096d354397df354	-1460.8322505645529
103	0x40510c4ea29eaaf7	68.19229951376825
104	0xc073edc906b2b4b6	-318.86157865340226
105	0xc09f149d90f938c5	-1989.1538733425998
106	0xc077b18f3fb482fa	-379.09747286331515
107	0x40737de877c0d9fb	311.8692548306714
108	0xc077bf6f4792c4ed	-379.9646678670095
109	0x407ba544705fca9e	442.3292087308745
110	0xc0758ec0b89aab5f	-344.9220510522627
111	0x4059b47d2154f3c1	102.82013734146223
112	0xc0478b401449e5dc	-47.08789304359718
113	0x408db5efc848fc93	950.7420812322692
114	0x408c3882a45a45d1	903.06379004026
115	0xc08b92ff37a68921	-882.3746178637122
116	0x4076324e70f40b0f	355.1441506894052
117	0x408bbdd978711d01	887.7311867558457
118	0xc085060f7e46e8a2	-672.7575650729889
119	0xc03d94c8b4d6e572	-29.581187536682997
120	0xc038085a2803e856	-24.032625676111216
121	0xc06d10ecadfb1982	-232.5288915542879
122	0xc095ed4c3e96fc1d	-1403.3244575110796
123	0xc0a682ba4e9c46a8	-2881.363881000161
124	0xc0a6438f12206fff	-2849.779435170814
125	0xc077fa0dcad6992b	-383.6283672697779
126	0xc04c6f31924590fb	-56.868700298278746
127	0x0000000000000000	0.0
128	0x0000000000000000	0.0
129	0x3fe061b3537d4b92	0.5119263296750083
130	0x4054a2b57c097213	82.54232693598196
131	0xc07e2d9149aad754	-482.8479706452829
132	0xc098d861dd368589	-1590.0955704230312
133	0xc0a07627a451c9a8	-2107.077425533167
134	0xc07f20d1e6256d52	-498.05124487514433
135	0xc0464e6bd53c2630	-44.61266580044719
136	0xc04b26b87af2a88e	-54.302504890904956
137	0xc07ce5c1d8687e81	-462.3598255235484
138	0xc071dbc69364fb76	-285.7359804100628
139	0xc0550be1cce54ea0	-84.18565676110529
140	0x406513ff072462a6	168.6248813353206
141	0x406b7b060721c22b	219.84448582261516
142	0xc0931d7ec8fffb0e	-1223.3738136288625
143	0xc080e67aef1e8f87	-540.8100263965179
144	0xc05cdc21e5ec76fa	-115.43956897823583
145	0x406f5d1ab81d59db	250.9095116208326
146	0x406881cf4114384c	196.0565495867653
147	0x4040048cbc7a5b32	32.035544929260496
148	0xc0581a1c28ac7829	-96.40796868174279
149	0xc06be8cf3aa6249b	-223.2752965207081
150	0x40604de0d6082c70	130.43369580837634
151	0xc081f6269816dc16	-574.7688447748103
152	0x40329f1d4ef085f9	18.621540960046307
153	0xc097d3517c348516	-1524.829575367568
154	0xc08efce824e881cb	-991.613351646863
155	0xc08b109b06e285a1	-866.0756967255621
156	0xc080df3edaf6100d	-539.9056910728119
157	0x4053838a252a298c	78.05530671231662
158	0xc07f55686fb0e1a2	-501.3379971417836
159	0xc0598f2f223fb642	-102.23725181791181
160	0xc074fddbd8b0ddc8	-335.8661734494058
161	0xc04c07a47fc89f4a	-56.059707615814276
162	0x4067ecfbc934eeba	191.4057355913008
163	0x40799f395bf58f53	409.95150371476956
164	0xc0233c34fbcd07de	-9.617591732767263
165	0xc01be30257ab9676	-6.971688623283276
166	0xc07b7815d223ebc1	-439.5053273585473
167	0x40904ab15f943176	1042.673216166991
168	0xc0626adbd3c2f39c	-147.33933437420353
169	0x4089f983cd8a9d09	831.1893568829702
170	0x4064a851ce9583bb	165.25998620225968
171	0x4069b35cb555b5b4	205.60506693592254
172	0x4071eb7bc2da59d4	286.71771512311284
173	0xc042e85436b3143c	-37.81506999725431
174	0x407a226ce906b236	418.1515894185608
175	0x4095b6f349816e9e	1389.737585089089
176	0x407efbb57f4bec61	495.7318108525997
177	0xc08084cbf0b55358	-528.5995802084026
178	0x4077007c2adb0724	368.0303143077638
179	0x40729c758ac96a12	297.77869681050754
180	0xc06d5be1185bd347	-234.87122743544225
181	0x408206409bee2f6e	576.7815474136567
182	0x407fcc7e26c5ca6c	508.78079869520184
183	0x40815730627e2a25	554.8986253601657
184	0xc0600d16172a9eaf	-128.4089465935153
185	0xc08c8648288c81be	-912.7852335908026
186	0xc09ed7ca300cbf29	-1973.9474489204097
187	0xc0a0fe0a315c0555	-2175.0199078327664
188	0xc08e894caf313871	-977.1624435277319
189	0xc0793911f102a1aa	-403.56688023593836
190	0xc07f2a32bcec8886	-498.6373872031767
191	0xc043beb87bd32211	-39.49000499543411
192	0x0000000000000000	0.0
193	0x0000000000000000	0.0
194	0xc063a7b4f3b5bb8b	-157.24083886618277
195	0xc07c36006f0ec654	-451.37510591288924
196	0x405c2081c43e8659	112.50792032342851
197	0x407bf25d99f691a9	447.14785190883646
198	0xc05045f27b7f84c1	-65.09292495205865
199	0xc0343a251059a676	-20.22712804974295
200	0x40650aecd0dcf341	168.34140818743074
201	0x40724979d82c2cf2	292.59224717384416
202	0xc03ce7d8c178e22e	-28.905651180279328
203	0x4060cf58de934eaf	134.47959831973046
204	0xc051d3bd459aeaba	-71.30842723969081
205	0x4040b991e20e8864	33.449764496894915
206	0xc08840b2cbf504e1	-776.0873030798067
207	0xc08cd780d792b110	-922.937911172894
208	0xc07ee9eef09eff5f	-494.62083494289794
209	0x4053aef9c5ea9841	78.73399494084971
210	0xc035543be92dcd7c	-21.329039167101186
211	0xc05aa5e8d0a1139e	-106.59233489732875
212	0x404d48a80becf201	58.56762837476345
213	0x4037a9d4a80d29f2	23.66340112992652
214	0x407bbe57a3cc7504	443.8963964449506
215	0xc0959672c1311830	-1381.612065093137
216	0x4043f53ceb792d24	39.91592162529767
217	0xc042cbe1f356703a	-37.592832963186495
218	0xc05bb9e740949fcc	-110.90473951829989
219	0xc0262a70b2f79cf6	-11.082891075826847
220	0x4051bd9eb0bec1ae	70.96281069401331
221	0x40321e6420dacee1	18.11871533720012
222	0xc0848ac0f12bd028	-657.3442099974536
223	0xc082e5da3412274d	-604.7315446298832
224	0x4071516f7489f22f	277.0897107494847
225	0x0000000000000000	0.0
226	0xc05692ab75a4b98a	-90.2917150601044
227	0x404ad46ab4ad399c	53.65950640161756
228	0xc054ea76a5c0a01b	-83.66349166689945
229	0xc037376e4ab3339a	-23.216526669264205
230	0x406a0e2d603f016c	208.44303905778668
231	0xc074a1a2fc38692e	-330.10229131732456
232	0x4083a25d25d762c4	628.2954823328987
233	0x401a324e42af23de	6.5491266650578535
234	0xc044700d5584d21a	-40.8754069231547
235	0xc0702174efc64b18	-258.09104897936186
236	0x4041d750a8fbcd33	35.68214905066488
237	0x4034b6bef04ae004	20.71385099246983
238	0x405b211a5f16732e	108.51723458473563
239	0xc094c05c5f4dab72	-1328.090207303609
240	0x4093d2fd548cfb60	1268.7473928478648
241	0x40372fa6c6f00b0c	23.186138566593442
242	0x403a3d53d45fa3fa	26.239560387944927
243	0x405980f855b01769	102.01515714832716
244	0xc058a020c7b675aa	-98.50200074022601
245	0x405ba1a4e2e32904	110.52568885978332
246	0xc079ee2a8a525209	-414.88538581997324
247	0xc0857bbe455b99c3	-687.4679057270336
248	0x405749a4a285abf6	93.15067351392631
249	0x406219444141c697	144.78958189818215
250	0x405330dd3e0e601f	76.76350356487136
251	0xc05d13c4b9311840	-116.30888204378516
252	0x40519d0bb5a7f8c8	70.4538396969175
253	0xc0785205cc861ee6	-389.1264157523241
254	0xc070be5a9157ad0d	-267.89711126564436
255	0xc02172f4c8df4aa6	-8.724523808724665
