zynq/python/model_weights.npy (npy, 20560 bytes, 1 tensors)

array f8 [10, 256]
0	0x0000000000000000	0.0
1	0xbfb37cc95479d136	-0.07612284004591605
2	0x3f854348fe0ee9e6	0.01038224244426984
3	0x3f65e1a11ac98540	0.0026710650038671846
4	0x3f3245a443fd91d8	0.00027880916967706676
5	0x3f3e61454100e26e	0.00046356144685292297
6	0x3f13362af7e9283e	7.328641184148416e-05
7	0x3f4b486da23935cf	0.000832608730385759
8	0xbefe539c645b407d	-2.8921704390339344e-05
9	0x3f42f5e7619517b1	0.0005786304274486479
10	0x3f4984e6a9640474	0.0007787824895616594
11	0x3f524a4c6948c2a3	0.0011163469508909472
12	0x3f524e5e959d6f94	0.001117317550288076
13	0x3f596f93876a8261	0.001552480765589469
14	0xbf994a77e703e10c	-0.02469813678268999
15	0x0000000000000000	0.0
16	0x3fa45d7f8a971b28	0.03977583472037899
17	0x3f60a69b8556a279	0.0020325696484245173
18	0x3f251f9af6470320	0.00016115919710382124
19	0xbf54969517de1177	-0.0012566047657581439
20	0x3f4063fe353fc7ba	0.0005002013444921273
21	0xbf45d48f3b81cb15	-0.0006662082078164622
22	0x3f2a11022815278e	0.00019887114835120647
23	0xbf2fe55e0da26988	-0.0002433469115360016
24	0xbf254db6e6aada12	-0.00016253335646405957
25	0xbf41fe7d0bb78c29	-0.0005491362166448788
26	0xbf4074f28a3812cd	-0.0005022224690383825
27	0xbf4c3b8568af5a76	-0.0008615876589555666
28	0xbf3d25317a0421ed	-0.0004447217743437638
29	0xbf3e40726fb12c4d	-0.00046160501341735856
30	0x3f5f0da48c98b873	0.0018953425336678791
31	0xbf43d9730153b3b6	-0.0006057559536692878
32	0x3f8b18f420b159dc	0.0132311890103382
33	0xbf65c5cdbc2f2ae9	-0.0026577966941422238
34	0xbf1837b0e3295ace	-9.238259443953707e-05
35	0xbf218c9ea80ce6f2	-0.00013389050220684974
36	0x3eeb7eab2149de3f	1.3110541695156924e-05
37	0xbf2825de3805d7de	-0.00018423402435602162
38	0xbf1e767cda6f3b55	-0.0001162065224058322
39	0x3f17d61747177a90	9.092824054544369e-05
40	0xbebd7c8c7be4bd4f	-1.7575334677158367e-06
41	0x3f1722d476ccab62	8.825704362595618e-05
42	0xbf17b9dd15f78d56	-9.05076208180163e-05
43	0x3f1ee4b0124a23c3	0.00011784863142784347
44	0xbf2ef91bbb848fdf	-0.00023630584269895748
45	0xbf383faf10bcf740	-0.0003700067907067457
46	0xbf2ca7c39c0d4ddd	-0.00021862280666572103
47	0xbf4be1681f3d1d8c	-0.0008508451851207285
48	0xbf9e13048f6dfdfb	-0.02936942220139647
49	0x3f54ef9b96e02775	0.0012778300692865817
50	0xbf22fb4e8e236544	-0.000144818629513913
51	0x3f068cdb07bfcd96	4.30111258252999e-05
52	0xbf12c1b7bc51c32e	-7.155116971248036e-05
53	0xbf20b215388f3dc5	-0.00012737759632706742
54	0xbf21b3a75497461a	-0.00013505380256488634
55	0x3f1fe3e43da36dcc	0.00012165146418701491
56	0x3f0a8c7840fcc65a	5.0637645584561324e-05
57	0x3ed19af86f110657	4.197443318311443e-06
58	0x3f1559865cfef157	8.144266689575262e-05
59	0xbf1973159d8b0805	-9.708232335994833e-05
60	0x3f1f65098dc134cb	0.00011976118861519167
61	0xbf39ae4f4f1ae50b	-0.00039185940031989723
62	0xbf2b451d4ef564ed	-0.00020805342453903507
63	0xbf3ff015a7f9b574	-0.00048733261789986955
64	0x3f702dc359346726	0.003949893073945698
65	0xbf4257274853af1e	-0.000559705906792971
66	0x3ed40d855e3dfd55	4.7809639659440505e-06
67	0x3f054589a8496d2d	4.0572417707019456e-05
68	0x3ecc4294944bc510	3.3688640165221932e-06
69	0x3f1234c3dd511cbf	6.945081197883266e-05
70	0x3ede6ccc03239d26	7.253882403391524e-06
71	0x3f1844b7562a0365	9.257668492958016e-05
72	0x3f21bcd33152367e	0.00013532712970170177
73	0x3f23d834e213db9a	0.00015140195413440306
74	0x3f24ca349638e852	0.00015861408165724012
75	0xbeffb3db3364d716	-3.0233920562858825e-05
76	0xbf01b6c1d1c53261	-3.378657331385284e-05
77	0xbf1836c97a3189c8	-9.236912460289855e-05
78	0xbf4f184b5b0d2780	-0.0009489410350422695
79	0x3f467e6dfaac4172	0.0006864583022850158
80	0xbf4adef969edb099	-0.0008200376358735883
81	0x3f1dde03e1827164	0.00011393450438607549
82	0xbf20f8f1e0dc1be1	-0.00012948944679910728
83	0x3f1571a3c31b17fe	8.180200600368945e-05
84	0xbed731b4f5649be1	-5.529920448921694e-06
85	0x3eff26283b4b541c	2.970605028703245e-05
86	0xbf1185ec61521644	-6.684546709053671e-05
87	0x3f0d91f801c3bdd1	5.640066248868324e-05
88	0x3f302e1e27ec390d	0.0002468894598885031
89	0x3f26dab3aaf48e40	0.00017436450205209238
90	0x3f140075e5cafed8	7.630080785769476e-05
91	0x3f30c3af7f6e42bc	0.00025580439199139235
92	0xbf07e321d2d654b3	-4.556128474601222e-05
93	0x3f2eba65d2361790	0.0002344369214421463
94	0xbf56799bd3b8640e	-0.0013717672108042342
95	0x3f358fb4219660ee	0.00032899997457881594
96	0x3f322e4f94a4d381	0.00027741854559631274
97	0xbf3854302991adb9	-0.00037122894133886534
98	0xbef19bb2eb2f1bd2	-1.6792486984742155e-05
99	0xbf22ee7706a9c5dd	-0.00014443591074413025
100	0x3f13cc3022ff2760	7.552188685547084e-05
101	0x3f15025179522ca6	8.014318730624695e-05
102	0x3f166c633a77ffc9	8.553844110536982e-05
103	0x3efea880b8d34bac	2.923795141358445e-05
104	0xbf2ae9d1ac901d82	-0.00020533260820363933
105	0xbee510ebbdc0c300	-1.0045097887796586e-05
106	0x3f15594096ebf0b5	8.143860553028427e-05
107	0x3f35addfbe07b083	0.0003307982679234893
108	0x3f2b533fba125715	0.00020847466388278975
109	0x3f428b51c0cdd1d5	0.0005659245667702326
110	0xbf44452c2b6464fc	-0.0006185975715055354
111	0xbf61ab8f187d22bf	-0.0021570010029886284
112	0x3f37436a2ed0ba6c	0.00035497038226398633
113	0x3f409d6663c7cae3	0.0005070447874103403
114	0xbf43d10385200e83	-0.0006047503650283423
115	0x3f27161950a842e0	0.00017613467237300503
116	0xbf1e325e882ce265	-0.00011519147851125342
117	0x3f056f0d1d65a937	4.088171742718183e-05
118	0xbec2d06cab8588fa	-2.242822429264076e-06
119	0xbf24e7c2db6ebdd7	-0.00015949491145537842
120	0xbf3b853b3cbc4d63	-0.00041992851468926877
121	0xbf25f67b4dc80ced	-0.00016756301091911484
122	0xbf39f7eb9e561c99	-0.00039624693302937327
123	0xbf28b2ebe9bac5bd	-0.0001884377460235463
124	0x3f1e9012f172fae8	0.00011658778781773913
125	0x3f47d0b9e3d0dadc	0.0007267863908343125
126	0xbf29e710afb9cf26	-0.00019762114230880665
127	0x3f38e411347f627d	0.0003798048023760171
128	0xbf28d750daf426cc	-0.00018952238085772342
129	0xbf404cbd821de602	-0.0004974294026702244
130	0xbf1d4ee3164ec1e5	-0.00011180172948744396
131	0x3f224236f1905641	0.000139302451117972
132	0x3f2167fe871ba38e	0.00013279897716891555
133	0x3f3360ae6f03b023	0.0002956796515849477
134	0x3f15dd4e266f13a7	8.340634813837224e-05
135	0xbf33915881036dbb	-0.00029858027211357067
136	0x3ef7fb2546b383fe	2.287009958202093e-05
137	0xbf2a8a8d505ea0ec	-0.00020249342941026178
138	0xbf310b789cc8ca7e	-0.0002600831474267941
139	0x3ec87e6fbf157a96	2.919899536976102e-06
140	0x3f3845e1b2ec8edd	0.00037037620761480404
141	0xbf230b2e47d322ae	-0.00014529170940693253
142	0xbf34b655dedecc7c	-0.0003160438199031957
143	0xbf4513d2c5d54e10	-0.0006432322658533347
144	0x3f7cbcc8f94b874a	0.007015976957264256
145	0xbf5365a172fa9bb4	-0.0011838986064647119
146	0x3f237d5e47ed7b35	0.00014869476214137705
147	0x3f227575f9231928	0.00014082970716895152
148	0x3ed4f714dc307f1e	4.998484146617552e-06
149	0x3f2839aeb4f3723e	0.0001848245396790671
150	0xbf1953a9a38dc6b5	-9.661410230224039e-05
151	0xbf33f464e55e74ac	-0.00030448401718692164
152	0xbf32ec7d283e5f60	-0.00028875403972382883
153	0xbf330afadfd78cb0	-0.00029057144987927174
154	0xbf16d4c4aef1252e	-8.709383449558426e-05
155	0x3f30972d2569d269	0.00025315143776730734
156	0xbf31a0cd2d97386d	-0.00026898392897301595
157	0x3f295d63105d13c7	0.00019351801182146256
158	0xbf052b1737084f41	-4.0375371899297e-05
159	0x3f394fd70ec1dc20	0.00038622856550979585
160	0x3f4c5a09d197d9b6	0.0008652255957589036
161	0xbf4da1b2963cf7a0	-0.0009042856222334257
162	0xbf1f7b884fe67ee3	-0.00012009639247034412
163	0x3f293cc77b4d4a89	0.0001925462253447761
164	0x3f2c8c900b89ef27	0.00021781214106286162
165	0x3ed3935f4a921643	4.667204089097541e-06
166	0x3ef524cc4b0ee8c3	2.0164243952549393e-05
167	0xbf24243309b9cb24	-0.00015366671583513195
168	0xbf2672a169819e36	-0.00017126293528523109
169	0x3eebc71e5ed3a9a9	1.3245490630049732e-05
170	0x3f0878f9ec18040f	4.667771055367347e-05
171	0xbf26c80c5f601fc5	-0.00017380858452065002
172	0x3f108580895be1b6	6.302449250117953e-05
173	0xbf2032656b4d814f	-0.00012357223536253257
174	0x3f0b98642a8acba7	5.263381655620037e-05
175	0xbf3cf93915cff556	-0.0004421009414839657
176	0x3f816cab6b1937bd	0.008508052068602607
177	0xbf3d68aad660a392	-0.00044874354205375847
178	0xbf0992693443bad2	-4.8774562431454956e-05
179	0xbf258b6f0efa291f	-0.0001643727368796999
180	0x3f17311519535337	8.846942212710212e-05
181	0x3f1e744b8c8cd278	0.00011617385019919459
182	0x3f01386b3fc394b5	3.284528063022524e-05
183	0x3f24bb68e3516d30	0.00015817313547726022
184	0x3eabe4b17fd4a619	8.312861151982877e-07
185	0xbf10d0867cbcdc85	-6.41424259669611e-05
186	0xbf014da4e348f40b	-3.300342033128047e-05
187	0x3ef07471f2926da2	1.5692580892163355e-05
188	0x3ef6a18604428d92	2.158255689778188e-05
189	0xbf2a4bc41966410f	-0.00020062226094497883
190	0x3f23686921baf09f	0.00014807017656959674
191	0xbf53473e2bbfcf40	-0.0011766535890247037
192	0xbf7e11b1c9702240	-0.007341093521070763
193	0xbee6fd55a2dc2751	-1.0962289788380273e-05
194	0xbf16463761147cbb	-8.496964462211241e-05
195	0x3f25ce052e851d42	0.00016635716679956099
196	0xbf2151916d822c50	-0.00013213062516501334
197	0x3f1b17f6919b75c2	0.00010335390507117736
198	0x3f210682fbb1e3fb	0.00012989376941499584
199	0xbf0ac872947a92d3	-5.10845152892674e-05
200	0x3f21c64bf3bc5cd1	0.00013560940885135609
201	0xbf11503888040471	-6.604523696653195e-05
202	0xbf1a065460852560	-9.927644726306006e-05
203	0xbf1a05414deee666	-9.926043593013744e-05
204	0x3f0619208b725fd9	4.2148881612635594e-05
205	0xbf1de4ea7438616f	-0.0001140373324733984
206	0x3f1f38aba0383543	0.00011910007020095752
207	0x3f6ca6c387cd7619	0.0034974879221596586
208	0x3f53a4164b13133d	0.0011987893779387825
209	0x3f449960b25ac0a3	0.0006286356117098001
210	0xbf411a6a074b7ead	-0.0005219476430191238
211	0xbee2d4c568171ff8	-8.979385941368365e-06
212	0x3f1b032d26751342	0.000103044157744381
213	0x3ef0468307376ff7	1.552146609450075e-05
214	0x3f143fe723fa642f	7.724617261785424e-05
215	0x3f2939bee7a53973	0.00019245581990863132
216	0x3f0b22bb7d4aa47f	5.175718948653099e-05
217	0x3f24eb3d8610b77a	0.0001595985986865797
218	0xbef4e1acb6cbb242	-1.991418996543011e-05
219	0xbf10393baf9af89e	-6.188799661807845e-05
220	0xbf2aa00d2c65fc57	-0.00020313416298376144
221	0x3f2597d8f37937aa	0.0001647426922652383
222	0xbf2dbe7ff358394f	-0.00022692977806610746
223	0xbf6cce3ba88f1117	-0.0035163083270807294
224	0xbfbb617bf67fbbfa	-0.10695624130288187
225	0x3f6f7a46eb55e06f	0.003842485918252029
226	0xbf315b4c17ae73eb	-0.00026484115340413725
227	0xbf210f3eb61fd210	-0.00013015404243756122
228	0xbf3b314244a86e7a	-0.0004149233615480041
229	0xbf31149abf71a551	-0.0002606275369943694
230	0xbf37b852b8442236	-0.0003619386627780359
231	0xbf38b735ce0720be	-0.0003771311148992421
232	0xbf2819242d305ce1	-0.00018385473831081855
233	0xbf261b7df1be130f	-0.00016866600423894775
234	0x3f0bfc680b095402	5.337898744942755e-05
235	0xbeccfe9fef066aab	-3.4564289920884414e-06
236	0x3f222e26114388e3	0.00013870444002523412
237	0xbf3903bb5cdc9797	-0.00038169216428440275
238	0xbf54d93931fbf453	-0.001272493223893241
239	0x3f78c9d9e983bfcb	0.006051875323677745
240	0x0000000000000000	0.0
241	0xbf882e9543ee610e	-0.011807600150675526
242	0x3f1adf6910890768	0.00010251120341655889
243	0xbf4c33b61cd08c1c	-0.0008606566640349009
244	0xbf3267c61ab952c2	-0.00028084360630957147
245	0xbf459a0b67029583	-0.0006592326808642499
246	0xbf320b9b79121c56	-0.00027535005308049665
247	0xbf349d017029de3a	-0.00031453404532253185
248	0xbf3ebb1d6b6e4606	-0.0004689165902443674
249	0xbf37d5fd73789de8	-0.00036370694894791037
250	0xbf42baf7db9655da	-0.0005716047518712867
251	0x3f069d32f51871af	4.313289413124547e-05
252	0xbf4f653c0cf646f2	-0.0009581130233746445
253	0xbf5d197b6bfc7f4f	-0.0017760949412561516
254	0xbf4899883a035479	-0.0007507243317613897
255	0xbf9b93d6542a5b4c	-0.026931141745616657
